hand-gesture-recognition-mediapipe-main/model/keypoint_classifier/keypoint_classifier.tflite (tflite, 7512 bytes, 6 tensors)

sequential/dense/BiasAdd/ReadVariableOp f4 [20]
-0.24983256 -1.1632122 -1.0604262 -0.06996758 -0.72452277 -1.0094401 -0.60226697 -0.004433926
-0.9719214 -0.4732766 -1.185488 -0.7696725 -0.55751544 -0.13410796 -1.6464156 -0.4915883
-0.31478703 -0.59400725 -0.9352625 -1.7458074
00000000: 1bd4 7fbe 23e4 94bf 0cbc 87bf 2a4b 8fbd
00000010: 537a 39bf 5535 81bf 2b2e 1abf 784a 91bb
00000020: d7cf 78bf 4f51 f2be 12be 97bf 4209 45bf
00000030: 55b9 0ebf 9953 09be bfbd d2bf 76b1 fbbe
00000040: c42b a1be dc10 18bf 5d6d 6fbf 9e76 dfbf

sequential/dense_2/BiasAdd/ReadVariableOp f4 [26]
-0.57490665 -0.32213 -2.147601 1.0340294 0.6630669 -0.36929175 0.9900633 1.1770921
0.45287874 -0.6088554 -0.12679991 0.3511058 0.66578823 0.57486475 -0.9743354 0.1909044
0.6313015 0.33713818 -0.21088728 -0.408212 0.5095035 -0.39328855 -0.17515619 -0.43538922
-0.4158191 -0.41241986
00000000: 152d 13bf 39ee a4be 4b72 09c0 135b 843f
00000010: c1be 293f cf13 bdbe ca74 7d3f f4aa 963f
00000020: b9df e73e f3dd 1bbf d6d7 01be 24c4 b33e
00000030: 1971 2a3f 562a 133f 0b6e 79bf 717c 433e
00000040: fa9c 213f 609d ac3e d6f2 57be 2a01 d1be
00000050: d26e 023f 1e5d c9be 255c 33be 56eb debe
00000060: 3ee6 d4be b228 d3be

sequential/dense_1/BiasAdd/ReadVariableOp f4 [10]
-0.46000105 -0.29549107 0.4813074 0.8004955 0.54451287 0.7812148 0.2753002 -0.027682515
0.008872566 1.2622752
00000000: 4285 ebbe 9b4a 97be ec6d f63e 46ed 4c3f
00000010: 3265 0b3f b1fd 473f 26f4 8c3e 71c6 e2bc
00000020: 3d5e 113c 3c92 a13f

sequential/dense/MatMul f4 [20, 42]
0.10252699 -0.2890016 -0.00953542 0.8957808 0.020115338 0.52932006 0.003446151 0.3853126
-0.004676475 0.27382436 -0.055030156 0.12809688 -0.003706461 0.05619931 0.018991623 0.06098348
0.04141848 -1.977494 -0.06925409 0.11056251 0.007481187 0.09801108 0.01605504 0.092082135
0.0065942607 0.1511442 -0.04221896 0.09042231 0.016771398 0.06591602 0.021594752 0.050025277
-0.01245583 0.064433135 -0.01492743 0.102421395 0.038555317 0.10497216 0.0056283963 0.104266
-0.010176398 -0.008990613 -0.069411024 -0.17843318 -0.11125863 0.33894566 -0.05625005 -0.13480976
0.012601408 -1.3859288 0.043764237 -0.15177841 0.034851223 -0.052057315 -0.017988838 0.007613297
0.031702787 0.038367778 0.025989925 0.0014207934 0.12686457 -0.113217495 0.0017094475 -0.059881274
-0.010886412 0.0050543235 -0.011539513 -0.0030156341 0.23999111 -0.15720212 0.019294618 -0.06534459
0.007931176 0.04256976 0.014514773 0.052739378 0.039750703 -0.24804783 -0.043012977 -0.11240874
-0.07907086 0.010497406 -0.044305276 -0.014885171 0.13687637 0.09470719 -0.004106217 0.6314509
0.011967181 0.13736674 0.012145262 0.01818293 -0.059849694 -0.03301238 0.072016925 -0.0033183838
0.034331243 0.0041248957 0.012118786 0.0645972 -0.024157206 0.080502756 0.060905088 -0.010970634
0.03236799 0.008708459 -0.02501673 0.07201277 -0.08461333 0.07553429 0.0197382 0.004551561
0.01886474 0.014417745 0.098933406 0.09650457 -0.16196555 0.18352506 -0.06524094 -0.0023541297
-0.043002702 0.0009845858 0.14479412 0.0060256654 0.18879536 -2.6927297 -0.23122525 -0.1991022
0.12994798 -0.75143754 0.054940246 -0.18021205 0.022420024 0.12569787 0.03086577 -2.0225468
-0.023320068 0.070066944 -0.041424863 0.08116052 0.002453232 0.122715324 0.0116295945 0.05195559
0.010730181 0.11281146 -0.07360091 0.10156808 0.0025657858 0.121839836 -0.04023468 0.113895796
0.07631792 0.17754136 -0.08102726 0.14845167 0.03908126 0.19020036 0.07530177 0.2406406
0.002845628 0.26739007 -0.06626321 0.19291377 -0.040499453 0.25872847 -0.04265079 0.17846544
-0.17166716 -0.02287805 -0.1543091 0.3681189 0.006861194 -0.20043553 -0.02734161 -0.10194956
-0.08826221 -0.3816465 0.006929105 -0.33803034 0.049350563 -0.32707918 -0.0033964072 0.03384064
-0.00523181 0.071782 0.009128795 -0.34025973 0.11339226 -0.16029112 -0.006382136 0.4634146
-0.046848156 0.35291025 0.015168379 -0.4034092 0.1193514 -0.3433987 0.014762253 0.17247029
-0.096180275 0.38811117 -0.0009318675 -0.6686607 0.13689972 -0.52722234 0.034235813 -0.08812534
-0.107744016 0.112833984 0.29197866 -0.034894824 -0.55743295 -0.68202764 -0.56235987 -0.0064343084
-0.7413072 0.107018806 -0.6116509 0.13637644 -0.19533892 -0.0010841959 -0.108671434 -0.018455869
-0.29877305 0.04851095 -0.45920137 -0.13147423 -0.03667029 0.10448229 -0.014032146 0.050528903
-0.16005129 0.08981171 -0.2263247 -0.025623951 -0.24723624 0.16776772 0.26710188 -0.01840496
-0.2347812 -0.26786143 -0.779079 -0.30938715 -0.7905685 0.14256299 -0.22457254 -0.012354198
-0.43197572 -0.06830732 -0.81621975 0.033581607 0.29900575 -0.19561115 0.5177522 -0.5446771
00000000: acf9 d13d 05f8 93be 733a 1cbc e451 653f
00000010: ecc8 a43c 8581 073f d2d8 613b b147 c53e
00000020: 1e3d 99bb b532 8c3e 4d67 61bd d42b 033e
00000030: 19e8 72bb 3f31 663d 5294 9b3c d0c9 793d
00000040: 6da6 293d 861e fdbf 17d5 8dbd 996e e23d
00000050: bf24 f53b 08ba c83d dc85 833c 8f95 bc3d
00000060: ab14 d83b 8cc5 1a3e caed 2cbd 552f b93d
00000070: 2c64 893c fafe 863d 7ae7 b03c 4ee7 4c3d
00000080: 8a13 4cbc 85f5 833d 2e92 74bc 4fc2 d13d
00000090: 2eec 1d3d a5fb d63d 696e b83b 6a89 d53d
000000a0: e8ba 26bc 5d4d 13bc 5e27 8ebd 30b7 36be
000000b0: 91db e3bd 498a ad3e 7466 66bd 920b 0abe
000000c0: 2376 4e3c 1d66 b1bf 2142 333d cd6b 1bbe
000000d0: 28c0 0e3d 0d3a 55bd 545d 93bc f778 f93b
000000e0: c8da 013d 8827 1d3d d3e8 d43c ea39 ba3a
000000f0: c9e8 013e 93de e7bd 8a0f e03a 1146 75bd
00000100: ec5c 32bc bd9e a53b 3a10 3dbc f2a1 45bb
00000110: 3bc0 753e 98f9 20be bf0f 9e3c 62d3 85bd
00000120: c3f1 013c a15d 2e3d 5fcf 6d3c 3f05 583d
00000130: a2d1 223d 4000 7ebe 602e 30bd 8e36 e6bd
00000140: e7ef a1bd 50fd 2b3c 7379 35bd efe0 73bc
00000150: 5229 0c3e d8f5 c13d 728d 86bb c4a6 213f
00000160: ff11 443c dea9 0c3e ecfc 463c 5ef4 943c
00000170: f424 75bd fd37 07bd 9c7d 933d 3e79 59bb
00000180: eb9e 0c3d 222a 873b df8d 463c 894b 843d
00000190: 55e5 c5bc a1de a43d 9d77 793d 2dbe 33bc
000001a0: 4c94 043d edad 0e3c e3ef ccbc 6e7b 933d
000001b0: c149 adbd b9b1 9a3d 01b2 a13c 4325 953b
000001c0: 3a8a 9a3c 6838 6c3c 999d ca3d 30a4 c53d
000001d0: 4cda 25be feed 3b3e 0b9d 85bd be47 1abb
000001e0: 9a23 30bd 380d 813a e944 143e f272 c53b
000001f0: 9253 413e af55 2cc0 50c6 6cbe 72e1 4bbe
00000200: 1511 053e 365e 40bf 0609 613d 8289 38be
00000210: 33aa b73c f1b6 003e 36da fc3c 6871 01c0
00000220: ba09 bfbc 427f 8f3d 1ead 29bd 7d37 a63d
00000230: 67c6 203b 2c52 fb3d 0e8a 3e3c 62cf 543d
00000240: a4cd 2f3c b209 e73d 13bc 96bd ed02 d03d
00000250: be26 283b 2a87 f93d 1fcd 24bd 3342 e93d
00000260: 924c 9c3d 67cd 353e 9ff1 a5bd b703 183e
00000270: ac13 203d e2c3 423e d037 9a3d 7d6a 763e
00000280: b77d 3a3b 5ae7 883e 01b5 87bd 308b 453e
00000290: c1e2 25bd 0f78 843e 98b2 2ebd a5bf 363e
000002a0: 84c9 2fbe c06a bbbc 3403 1ebe 157a bc3e
000002b0: ded3 e03b f93e 4dbe 83fb dfbc eeca d0bd
000002c0: d1c2 b4bd 2c67 c3be 8c0d e33b 5012 adbe
000002d0: d123 4a3d ec76 a7be 4296 5ebb 7c9c 0a3d
000002e0: 9a6f abbb 7102 933d f190 153c 8636 aebe
000002f0: 343a e83d 5b23 24be 3d21 d1bb ae44 ed3e
00000300: dae3 3fbd a7b0 b43e cb84 783c a78b cebe
00000310: 826e f43d f4d1 afbe 60dd 713c 0d9c 303e
00000320: 2afa c4bd 82b6 c63e 9248 74ba 592d 2bbf
00000330: 712f 0c3e 0bf8 06bf da3a 0c3d 0f7b b4bd
00000340: e5a8 dcbd 8115 e73d 3a7e 953e e0ed 0ebd
00000350: edb3 0ebf 5d99 2ebf d1f6 0fbf e4d6 d2bb
00000360: 4fc6 3dbf ad2c db3d 2795 1cbf 44a6 0b3e
00000370: ed06 48be 941b 8eba 218f debd c330 97bc
00000380: c8f8 98be 6bb3 463d 711c ebbe 2ea1 06be
00000390: 9633 16bd d0fa d53d 16e7 65bc 65f7 4e3d
000003a0: 7ce4 23be 34ef b73d aac1 67be 52e9 d1bc
000003b0: 7f2b 7dbe 4dcb 2b3e 94c1 883e 00c6 96bc
000003c0: 7c6a 70be 2225 89be b971 47bf fe67 9ebe
000003d0: b262 4abf 08fc 113e 58f6 65be 4369 4abc
000003e0: ec2b ddbe b5e4 8bbd c7f3 50bf de8c 093d
000003f0: 4817 993e 4a4e 48be 688b 043f f56f 0bbf

sequential/dense_1/MatMul f4 [10, 20]
0.07034171 0.75223607 0.07368017 0.08042557 0.414337 -0.34640417 0.05416903 -0.006765914
-0.016343 -0.022947114 1.2908643 0.7761038 -0.010840434 0.08034272 -0.77566504 -0.0118601695
0.07371336 1.0426643 -0.2690713 0.34924442 1.071791 -0.52262074 1.2503464 -1.4711263
0.2160817 0.13231878 0.06533836 0.45642555 0.569446 1.8590492 0.11716503 0.10184648
0.17155491 0.6358086 0.30616125 0.31951937 1.4053596 0.1417018 1.0286027 0.85870844
-0.2046436 0.029214725 0.21094222 0.8168005 0.013371916 1.0319021 1.0064503 0.4946664
-0.03919387 0.09417492 0.51659966 0.51940835 0.67776746 -0.2244626 1.4728919 0.38390988
0.00843113 -0.13334928 -0.04759499 -0.052204955 0.89529943 -0.14536017 1.1560978 -0.123790324
0.004336993 0.50330883 -0.035433214 -0.009928579 -0.24325901 0.35242546 0.64364594 0.80339307
-0.5381448 1.0926074 0.5542477 -0.2124779 1.2482334 1.4377021 -0.040341634 -0.009884333
1.647339 1.0324857 -0.12519652 0.2484208 1.054156 -0.003254961 0.36967787 1.64365
0.19367062 -0.593382 -0.11206619 0.06938655 0.6084266 1.2073815 -0.040238265 0.14714517
-0.16858312 -0.3786407 0.26461288 0.2185011 0.42727563 0.8684695 0.9199094 -0.20939972
0.73769397 0.17489131 0.5575401 -0.3935652 0.5911321 -0.6785801 -0.124215916 0.30479193
-0.025747767 0.9611104 -0.26792064 -0.01408991 0.92975974 -1.3038523 0.28707862 0.53898436
0.048514076 2.2615526 0.47886992 1.0305126 0.22717983 -0.14879833 0.37747595 0.4355038
-0.10609447 1.0010575 -0.28256264 0.15432651 -0.20963107 -0.09326863 -0.10104935 -0.22829062
0.44807708 -0.20660113 0.06728361 0.8092381 -0.7523592 0.89138997 1.9399432 0.05706924
0.8759478 0.29454654 0.008263982 0.23063703 0.9818151 0.48676053 0.26333183 0.049504362
0.33772525 -0.96178067 0.38662726 0.3845806 1.7225193 0.73008025 1.5452585 0.9698904
-0.0120016495 0.16829935 0.7687345 1.0682119 -0.15759423 -0.19746707 0.9214044 0.051416393
-0.045845937 -0.040426843 0.033080153 -0.2833623 1.4703989 -0.033322535 -0.19410422 1.7433631
1.0084354 -0.30713734 -0.0993408 0.060301557 1.0808101 0.26577857 -0.1277342 1.2202748
-0.014367671 0.080155954 0.030928144 -0.5155273 0.07673042 2.321335 0.1368565 0.2848251
-0.09333653 1.341377 0.16778342 -0.1282982 -0.26638377 0.18566656 0.16438818 0.73237747
00000000: 500f 903d 8b92 403f a1e5 963d 29b6 a43d
00000010: fb23 d43e e35b b1be 58e0 5d3d 9ab4 ddbb
00000020: c1e1 85bc 96fb bbbc 0b3b a53f bdae 463f
00000030: 139c 31bc b98a a43d fc91 46bf 2851 42bc
00000040: 08f7 963d 0676 853f b7c3 89be 2ad0 b23e
00000050: 7330 893f 79ca 05bf 5a0b a03f de4d bcbf
00000060: 8544 5d3e 937e 073e 1ed0 853d 9cb0 e93e
00000070: 37c7 113f 53f5 ed3f 38f4 ef3d e394 d03d
00000080: 17ac 2f3e 5ac4 223f 2bc1 9c3e 0b98 a33e
00000090: d3e2 b33f 471a 113e 41a9 833f 51d4 5b3f
000000a0: 188e 51be b853 ef3c 3d01 583e d619 513f
000000b0: e115 5b3c 5e15 843f 5dd3 803f ea44 fd3e
000000c0: c089 20bd c8de c03d e03f 043f f2f7 043f
000000d0: 2b82 2d3f 86d9 65be b987 bc3f d68f c43e
000000e0: b922 0a3c b78c 08be f7f2 42bd ddd4 55bd
000000f0: 5832 653f 4cd9 14be 03fb 933f c885 fdbd
00000100: 561d 8e3b d9d8 003f 6b22 11bd 7bab 22bc
00000110: e418 79be 1c71 b43e fbc5 243f 2bab 4d3f
00000120: dcc3 09bf 8fda 8b3f 2de3 0d3f ce93 59be
00000130: 1dc6 9f3f 9f06 b83f 453d 25bd e6f1 21bc
00000140: 01dc d23f 7e28 843f 8433 00be 0662 7e3e
00000150: 95ee 863f 2f51 55bb 6b46 bd3e 2063 d23f
00000160: 9751 463e e2e7 17bf f582 e5bd 891a 8e3d
00000170: d8c1 1b3f 7a8b 9a3f e1d0 24bd 39ad 163e
00000180: 0ea1 2cbe 32dd c1be 577b 873e c1be 5f3e
00000190: dfc3 da3e 0454 5e3f 2f7f 6b3f e16c 56be
000001a0: 83d9 3c3f b516 333e f3ba 0e3f 6181 c9be
000001b0: 6f54 173f 6db7 2dbf ea64 febd b00d 9c3e
000001c0: fbec d2bc 550b 763f e52c 89be 5ed9 66bc
000001d0: bc04 6e3f a2e4 a6bf f8fb 923e e1fa 093f
000001e0: b2b6 463d 47bd 1040 702e f53e d6e7 833f
000001f0: d4a1 683e 975e 18be 8744 c13e 5bfa de3e
00000200: 0f48 d9bd a722 803f 0dac 90be c507 1e3e
00000210: 87a9 56be a003 bfbd f6f2 cebd 04c5 69be
00000220: 5c6a e53e 3f8f 53be fdcb 893d 3a2a 4f3f
00000230: 9d9a 40bf 2232 643f 0f50 f83f 6fc1 693d
00000240: 1d3e 603f cece 963e a765 073c 1d2c 6c3e
00000250: 3c58 7b3f ad38 f93e 6ed3 863e 16c5 4a3d
00000260: 53ea ac3e 4237 76bf 02f4 c53e c0e7 c43e
00000270: 837b dc3f 8ae6 3a3f 08cb c53f bd4a 783f
00000280: 91a2 44bc aa56 2c3e c9cb 443f 2bbb 883f
00000290: 6260 21be cf34 4abe 29e1 6b3f ff99 523d
000002a0: f3c8 3bbd 9e96 25bd 0e7f 073d dd14 91be
000002b0: 0836 bc3f 367d 08bd 42c3 46be 8626 df3f
000002c0: 6914 813f 1b41 9dbe 3073 cbbd c4fe 763d
000002d0: fc57 8a3f 2114 883e c1cc 02be f731 9c3f
000002e0: 6166 6bbc ce28 a43d 055d fd3c 99f9 03bf
000002f0: d724 9d3d c190 1440 1c24 0c3e 98d4 913e
00000300: 3927 bfbd 3eb2 ab3f 6bcf 2b3e 9a60 03be
00000310: 7463 88be 601f 3e3e 6055 283e 177d 3b3f

sequential/dense_2/MatMul f4 [26, 10]
-0.105392784 -0.67215264 -0.057723235 -0.590501 0.22775541 0.3186606 0.43251625 0.47463328
0.6731982 -0.38510236 -0.40649208 0.77656287 -0.7217193 0.81190455 -0.5899277 0.14710155
-0.7553072 -0.018581111 -0.6964248 0.19192013 0.66876495 0.7334413 0.23033017 0.33345294
-0.06694879 -0.028622419 -0.54313505 0.11104683 -0.12907466 -0.06528566 -1.0591425 -0.16384679
-0.2075117 -0.16400345 0.5779381 0.3847522 -0.72977465 -0.38845617 -0.74613273 0.35324976
-0.25282598 -0.014191227 -0.30209818 0.13233007 0.0078115207 0.09541329 0.24819043 0.40398303
-0.49831542 -0.24544857 0.03586505 0.46805894 -0.1488882 0.023243645 -0.9326228 -0.4661829
-0.54425716 0.5225316 0.49194553 0.062049367 -0.04502396 -1.2441635 0.7674712 0.40468842
-0.5272304 0.039138146 0.056924894 -1.8161649 0.1067984 0.2630648 0.3284385 -1.2741369
0.6131529 0.53830254 -1.0717362 -0.53765666 -0.057016153 -1.3038054 0.13797836 0.40883222
-0.76229 -0.10929514 -0.13268699 0.22731583 -0.039763678 0.46929428 0.17887093 0.32853138
0.20227553 -1.2577215 -0.17606273 -0.42442515 -0.52349937 -0.19296774 0.1052971 0.04514387
0.2849909 0.69186914 0.9560589 -0.9422112 -0.075900525 -0.72083676 -0.45524177 -0.08336599
0.14828496 -0.007045465 0.67388606 -0.8420438 -1.2290246 1.0549561 -1.5079339 -0.068259545
-0.12497452 -0.08722792 0.84278965 0.89990455 -1.7861257 -0.7713263 0.49387696 -0.41202214
-0.21248095 -0.6395444 -0.23204987 -0.8044612 0.26981986 -0.19715074 0.45006818 0.64244777
-0.47837934 0.10233643 -0.03352518 -0.82338995 0.056084175 -1.4168257 0.3877004 0.038336776
0.47531185 0.19709541 -0.698183 0.46972793 0.9917542 0.13661447 0.557968 0.031104404
-0.20436557 -0.07194163 0.26782158 0.50488466 -0.66081816 -0.8467954 0.27218542 -1.8331035
0.5881209 0.64067006 1.0611945 -0.7166964 -1.177314 -1.5431317 0.1541054 0.227844
-0.501425 -0.07903148 0.37629873 0.11456281 0.5873532 0.12046858 -0.34655985 -0.5124186
0.4134621 -1.0068545 -0.6203324 0.2571961 -0.2871087 0.20268029 -0.050916098 0.03411933
-0.19881582 -0.48034075 -2.0642579 0.67680204 -0.27810946 -0.19695586 0.38373533 -0.3900686
0.1293281 0.33654338 0.5843506 0.32015285 -0.064853184 -0.5181842 -0.24583696 -0.7133946
-0.09879391 -1.2442628 0.57254755 0.45525703 0.3398956 -0.0019425353 0.3219814 0.13158664
-0.62543917 0.07166991 -0.5809957 -0.062126048 -0.0756912 0.1744631 0.09113961 -0.70784116
-2.1763756 0.78306395 0.14826743 -0.746499 -1.3907905 -0.5602047 -0.4347651 -0.75251997
-0.32869 -0.9711791 -0.2520769 -3.1889763 -0.26871982 0.4960304 -1.8556409 0.25691566
-0.13401474 -0.29432473 -0.7922476 0.096453905 -1.6148775 0.5841396 -0.21434121 -1.2294202
-1.2324268 -0.94445014 -0.573548 -0.80739146 -0.4226229 -0.42542672 -0.70360315 -2.8039446
0.2028292 -1.0140798 -0.6539003 -0.9974398 -1.2180952 -0.6360762 -0.6929749 -0.70240086
-0.7985583 -2.6959584 0.2106137 -1.0973587 -0.94527715 -1.389203 -0.8834615 -0.8079044
00000000: 2cd8 d7bd 3212 2cbf 336f 6cbd 132b 17bf
00000010: b738 693e 7b27 a33e c572 dd3e 2203 f33e
00000020: b856 2c3f 232c c5be bb1f d0be d3cc 463f
00000030: 99c2 38bf fad8 4f3f 8005 17bf caa1 163e
00000040: d05b 41bf 6a37 98bc e548 32bf b686 443e
00000050: 2e34 2b3f cfc2 3b3f acdb 6b3e 58ba aa3e
00000060: 721c 89bd 9079 eabc e60a 0bbf 856c e33d
00000070: 262c 04be 7db4 85bd fb91 87bf 74c7 27be
00000080: f27d 54be 85f0 27be c0f3 133f 3efe c43e
00000090: 83d2 3abf bae3 c6be 8e02 3fbf 27dd b43e
000000a0: 6872 81be 5282 68bc 9dac 9abe 8981 073e
000000b0: c9f7 ff3b 0b68 c33d a225 7e3e ddd6 ce3e
000000c0: 3323 ffbe df56 7bbe 3be7 123d 6ca5 ef3e
000000d0: 2676 18be 7569 be3c 5ec0 6ebf 86af eebe
000000e0: 7054 0bbf a2c4 053f 49e0 fb3e 7a27 7e3d
000000f0: 0b6b 38bd c040 9fbf fe78 443f 5233 cf3e
00000100: 92f8 06bf 524f 203d 142a 693d 1778 e8bf
00000110: 1fb9 da3d 6eb0 863e 1729 a83e eb16 a3bf
00000120: 97f7 1c3f 32ce 093f a72e 89bf dea3 09bf
00000130: c589 69bd 18e3 a6bf 334a 0d3e 7552 d13e
00000140: 7025 43bf 21d6 dfbd 19df 07be 7bc5 683e
00000150: 3ddf 22bd 5747 f03e f129 373e 4435 a83e
00000160: 5121 4f3e 05fd a0bf ca49 34be 414e d9be
00000170: 0e04 06bf 5699 45be 02a6 d73d c7e8 383d
00000180: 54ea 913e 561e 313f 47c0 743f c134 71bf
00000190: bc71 9bbd c288 38bf 7315 e9be cabb aabd
000001a0: 03d8 173e a5dd e6bb cc83 2c3f 2f90 57bf
000001b0: ae50 9dbf cd08 873f fa03 c1bf a9cb 8bbd
000001c0: a4f2 ffbd 8da4 b2bd 10c1 573f 2560 663f
000001d0: c49f e4bf a475 45bf 71dd fc3e 91f4 d2be
000001e0: 9b94 59be 2fb9 23bf 7b9e 6dbe 2bf1 4dbf
000001f0: d425 8a3e e2e1 49be 566f e63e 7577 243f
00000200: 23ee f4be c395 d13d b351 09bd afc9 52bf
00000210: 85b8 653d 8b5a b5bf ab80 c63e 0607 1d3d
00000220: 135c f33e 61d3 493e 1fbc 32bf 2e80 f03e
00000230: 9ae3 7d3f aae4 0b3e fed6 0e3f aace fe3c
00000240: 3545 51be 2256 93bd e91f 893e 1f40 013f
00000250: 612b 29bf 95c7 58bf e35b 8b3e 23a3 eabf
00000260: 178f 163f f402 243f 39d5 873f 6a79 37bf
00000270: 3ab2 96bf 5785 c5bf cecd 1d3e f04f 693e
00000280: 645d 00bf 42db a1bd 3aaa c03e e89f ea3d
00000290: c85c 163f 3bb8 f63d 4b70 b1be de2d 03bf
000002a0: 4eb1 d33e 9ce0 80bf 1bce 1ebf 35af 833e
000002b0: e9ff 92be 6c8b 4f3e 668d 50bd b6c0 0b3d
000002c0: 6096 4bbe 39ef f5be cd1c 04c0 e642 2d3f
000002d0: 5d64 8ebe ccae 49be f578 c43e 12b7 c7be
000002e0: 966e 043e 6a4f ac3e 0098 153f 13eb a33e
000002f0: bfd1 84bd b8a7 04bf afbc 7bbe 07a1 36bf
00000300: 7654 cabd 0144 9fbf 7a92 123f 7317 e93e
00000310: cc06 ae3e ab9c feba bfda a43e a6be 063e
00000320: c81c 20bf acc7 923d 22bc 14bf e277 7ebd
00000330: fd03 9bbd 74a6 323e 67a7 ba3d 1435 35bf
00000340: bd49 0bc0 e176 483f 6bd3 173e 8f1a 3fbf
00000350: 6c05 b2bf 9369 0fbf 8899 debe 26a5 40bf
00000360: 0e4a a8be 329f 78bf 3910 81be 3018 4cc0
00000370: a595 89be b2f7 fd3e a485 edbf 738a 833e
00000380: 293b 09be bbb1 96be bdd0 4abf a089 c53d
00000390: 4eb4 cebf 2c8a 153f 437c 5bbe a45d 9dbf
000003a0: 29c0 9dbf 7cc7 71bf 0bd4 12bf 35b1 4ebf
000003b0: 0762 d8be 88d1 d9be 561f 34bf d473 33c0
000003c0: 75b2 4f3e 5ecd 81bf 0366 27bf 3758 7fbf
000003d0: 8bea 9bbf e4d5 22bf ce66 31bf 8bd0 33bf
000003e0: 516e 4cbf 958a 2cc0 1eab 573e 4076 8cbf
000003f0: affd 71bf 67d1 b1bf 882a 62bf d3d2 4ebf
